CNN/audio_cnn_model.pth (torch, 312326 bytes, 14 tensors)

conv1.0.weight f4 [16, 1, 3, 3]
0.27039838 -0.07073165 0.18161194 -0.22441363 -0.09183908 -0.008979784 -0.086853966 -0.0040486655
0.024748495 0.24162135 -0.23608415 0.23559184 0.12973568 0.20890176 -0.032334562 0.25530678
-0.25831977 0.144618 0.33552542 -0.22926913 0.20423731 -0.35866383 0.28542757 0.23756379
0.24521045 -0.15739252 0.07981546 0.15812765 -0.111894995 -0.0901408 -0.046384286 0.09928007
-0.11790616 0.38540816 -0.28140885 -0.22907907 -0.36407998 -0.09490776 0.18226327 -0.032250702
-0.1113983 0.27928838 0.1980675 0.14855567 0.058803383 -0.0017229824 0.11862406 0.24264607
-0.3279807 0.11049784 0.30512777 -0.07322671 0.31671712 -0.15910184 0.046025418 -0.28390837
0.07190778 0.12069062 0.32963195 -0.13755137 0.024149293 -0.2698656 0.20429121 0.011636387
-0.19502456 -0.33382842 0.20549339 0.16316442 0.17542073 -0.032277603 -0.038449988 0.16680495
0.22246878 -0.31527603 -0.14754927 0.31571454 -0.2249091 -0.19232716 -0.042491533 0.09377031
-0.18844111 0.03485313 -0.3585949 0.09421353 0.21632464 -0.18984798 0.010501249 0.35628194
0.0387826 0.06706601 -0.18195245 0.17070526 0.24317014 -0.11623248 0.1357891 0.2614817
-0.015856521 -0.1093628 0.23379761 0.061815996 -0.14776704 -0.24169275 0.032796524 -0.3050156
-0.34357202 -0.14800608 -0.039194442 0.013318388 -0.14971238 0.23062092 -0.024644237 0.024304532
-0.024107302 -0.025607668 0.13133311 -0.24180272 -0.193914 -0.04992085 -0.17284748 0.30447945
-0.36534768 0.37541708 0.0022879366 -0.18187332 0.25808594 0.03337782 -0.33162633 0.060490195
0.3162907 0.17158996 -0.34096748 0.25066763 0.17363857 0.14199603 -0.17280465 -0.2554581
-0.036132675 0.08345357 0.015497802 0.15362838 0.03798632 -0.24252327 -0.08304556 0.018883828
00000000: a871 8a3e c1db 90bd 7bf8 393e b0cc 65be
00000010: 2116 bcbd f21f 13bc 7ee0 b1bd abaa 84bb
00000020: 5bbd ca3c 966b 773e 0bc0 71be fd3e 713e
00000030: 6ed9 043e 58ea 553e 3f71 04bd 92b7 823e
00000040: 7d42 84be be16 143e fdc9 ab3e 87c5 6abe
00000050: 9623 513e c9a2 b7be 9023 923e ec43 733e
00000060: 7318 7b3e 812b 21be 4a76 a33d 37ec 213e
00000070: 3429 e5bd bd9b b8bd 73fd 3dbd 5953 cb3d
00000080: c978 f1bd 3854 c53e d214 90be b493 6abe
00000090: b168 babe 005f c2bd 39a3 3a3e 5019 04bd
000000a0: cb24 e4bd e3fe 8e3e 35d2 4a3e fa1e 183e
000000b0: d1db 703d b2d5 e1ba 2cf1 f23d 3678 783e
000000c0: 16ed a7be b14c e23d b539 9c3e e3f7 95bd
000000d0: bf28 a23e 98eb 22be 2685 3c3d 705c 91be
000000e0: 6344 933d a52c f73d 85c5 a83e 44da 0cbe
000000f0: bdd4 c53c d32b 8abe b731 513e 8ba6 3e3c
00000100: 85b4 47be 8feb aabe dc6c 523e 9314 273e
00000110: 7ea1 333e 8535 04bd bc7d 1dbd ebce 2a3e
00000120: dbce 633e dc6b a1be 2817 17be 56a5 a13e
00000130: 924e 66be 69f1 44be 9a0b 2ebd a60a c03d
00000140: b5f6 40be 28c2 0e3d c099 b7be 06f3 c03d
00000150: 3584 5d3e 8267 42be 6e0d 2c3c 966a b63e
00000160: 81da 1e3d e759 893d be51 3abe 5ccd 2e3e
00000170: 9801 793e 4b0b eebd 4c0c 0b3e eee0 853e
00000180: 89e5 81bc 9bf9 dfbd a468 6f3e c532 7d3d
00000190: 3e50 17be 4e7e 77be a655 063d 012b 9cbe
000001a0: ace8 afbe e88e 17be 5a8a 20bd 5e35 5a3c
000001b0: 344e 19be e427 6c3e b6e2 c9bc 4c1a c73c
000001c0: ad7c c5bc 2cc7 d1bc 307c 063e 229b 77be
000001d0: 6491 46be ce79 4cbd eefe 30be bbe4 9b3e
000001e0: da0e bbbe ab36 c03e 35f1 153b 003d 3abe
000001f0: d723 843e 2eb7 083d edca a9be 91c4 773d
00000200: dbf0 a13e 47b5 2f3e 4a93 aebe 8257 803e
00000210: 4fce 313e 6867 113e b4f3 30be 67cb 82be
00000220: dbff 13bd b5e9 aa3d 7eea 7d3c c250 1d3e
00000230: 8b97 1b3d 0558 78be ca13 aabd 42b2 9a3c

conv1.0.bias f4 [16]
-0.36112082 0.46864843 -0.46950856 -0.1238839 0.561442 0.5417849 0.3384028 0.49182954
0.5938031 0.518888 0.52198565 -0.35938326 0.62751645 -0.16592151 -0.4447083 -0.4307903
00000000: d4e4 b8be b0f2 ef3e 6d63 f0be d8b6 fdbd
00000010: aaba 0f3f 6ab2 0a3f 2243 ad3e 15d1 fb3e
00000020: 7b03 183f d8d5 043f daa0 053f 1501 b8be
00000030: eba4 203f 54e7 29be ceb0 e3be 8c90 dcbe

conv1.3.weight f4 [16]
0.82623076 0.9839526 1.1964171 0.9580154 0.767363 0.8705499 0.9917183 0.8523512
0.8324981 0.8743821 0.7381344 1.0027214 0.9038497 1.2231131 1.105164 1.1602517
00000000: dc83 533f 51e4 7b3f 3224 993f 7f40 753f
00000010: e771 443f 5cdc 5e3f 40e1 7d3f b033 5a3f
00000020: 981e 553f 81d7 5f3f 60f6 3c3f 2d59 803f
00000030: b262 673f f88e 9c3f 0476 8d3f 2183 943f

conv1.3.bias f4 [16]
0.2934333 0.22027166 0.20783237 0.26050848 0.29695216 0.35696486 0.46235773 0.52135015
0.22624044 0.2750715 0.37785712 0.26691905 0.11312684 0.30779362 0.15851967 0.36773944
00000000: e43c 963e e58e 613e 02d2 543e 5e61 853e
00000010: 1d0a 983e 19c4 b63e 27ba ec3e 3477 053f
00000020: 93ab 673e 2cd6 8c3e 7d76 c13e 9da9 883e
00000030: 0baf e73d 2097 9d3e fb52 223e 5848 bc3e

conv1.3.running_mean f4 [16]
0.10277074 0.6134004 0.07068388 0.10466013 0.808414 0.7430403 0.5331421 0.8294322
0.75205106 0.7557825 0.67670095 0.17365444 0.78182906 0.07973009 0.055751175 0.07183747
00000000: 7779 d23d cf07 1d3f b6c2 903d 0d58 d63d
00000010: 38f4 4e3f e437 3e3f 007c 083f ab55 543f
00000020: 6b86 403f f67a 413f 463c 2d3f 78d2 313e
00000030: f325 483f 8849 a33d 585b 643d 861f 933d

conv1.3.running_var f4 [16]
0.11834808 0.13005216 0.071573794 0.067622766 0.27248892 0.18054102 0.1331549 0.4463815
0.14423366 0.24585499 0.160846 0.27295187 0.11427452 0.053630468 0.051551905 0.07616733
00000000: 7a60 f23d 652c 053e 4895 923d ce7d 8a3d
00000010: ab83 8b3e bfdf 383e c259 083e 1e8c e43e
00000020: fdb1 133e 69c1 7b3e d0b4 243e 59c0 8b3e
00000030: c208 ea3d 9fab 5b3d 1728 533d 9efd 9b3d

conv2.0.weight f4 [32, 16, 3, 3]
-0.033921618 -0.18296836 -0.014094831 -0.031284597 0.0552962 0.07493332 -0.024675462 0.09828193
-0.08793489 0.01718641 0.12069951 -0.04425474 0.08921839 0.08913831 -0.08843731 0.12620164
0.034424625 -0.12016135 0.03855272 0.025872609 0.014682425 -0.096492216 0.28017476 0.13801868
-0.11327549 0.16475649 -0.21822795 -0.13596538 0.027571315 -0.22549923 0.055776373 0.15426774
-0.08256747 -0.13138023 0.04744301 -0.052044474 -0.10082847 -0.04492747 -0.16353472 0.020424508
-0.108380504 -0.016568907 0.12482383 0.065671906 -0.16830656 -0.055587035 0.069517 -0.057661153
0.08188421 0.08056386 -0.0066172485 0.049862944 0.007148312 -0.0014031546 -0.1219944 0.15762007
0.030368192 -0.033205174 0.23996948 0.046458755 0.06775619 -0.061405364 -0.09927774 -0.01561124
-0.12037796 -0.06696102 -0.0656504 0.01627493 -0.030849015 -0.0055288924 -0.14843008 0.044648387
-0.15991166 -0.12337879 -0.15464295 -0.12939388 -0.04901142 -0.2611046 -0.12180791 -0.10491094
-0.07091581 -0.09585848 -0.0010349847 -0.0016733757 -0.030514766 -0.15056632 -0.037463095 0.07428609
-0.074540794 -0.08935009 0.11437073 0.04125216 0.041606702 0.040486194 -0.046030004 -0.0553508
-0.012446239 -0.03559348 -0.16978852 0.031278208 -0.2153283 -0.19118737 0.061013203 -0.08967198
-0.10510946 -0.1962882 -0.15788457 -0.13859688 0.02026797 -0.019800723 -0.19902027 -0.035013124
-0.057183616 -0.018904608 -0.10311098 -0.015165762 -0.0014204232 0.09059356 0.056779433 -0.15754376
0.26125568 0.15159109 0.09223748 -0.0022712408 -0.09138572 -0.18192671 0.045942876 0.07020684
-0.09158587 0.15473089 0.051387142 -0.03698984 0.07471887 0.016154448 -0.17185614 0.043102197
0.05155433 -0.15489723 0.1132788 0.14095183 -0.015726198 -0.18885574 -0.22166279 -0.21987061
-0.086603954 -0.10626564 -0.06557798 0.11052686 -0.0337518 0.03184551 0.050578192 -0.104690574
0.092160635 -0.06259805 0.17087482 0.14730616 -0.050885882 0.10173927 0.059295796 -0.09997787
-0.02669582 0.06203663 0.05135743 0.20211208 0.07810465 0.13352181 0.18707463 0.16531448
0.06609051 0.051553898 0.06289562 -0.23868276 -0.28357226 -0.19671762 -0.0071878624 -0.07540252
-0.12773134 -0.13968682 0.030381992 0.042745486 -0.0051628235 0.1448933 0.017900975 0.0034343617
-0.13414755 -0.07594687 0.041283283 -0.02641829 -0.12731414 0.049941942 0.14345363 -0.069091365
0.1828637 -0.023050293 0.006900015 0.043630086 -0.06858223 -0.055442434 -0.112932414 -0.030434035
0.13481839 -0.056882776 -0.0839341 0.026164697 -0.048438244 -0.10065223 -0.13108447 0.00069723383
0.00678487 0.11590948 -0.012994478 0.013891394 -0.04064742 -0.020763755 -0.10966226 -0.12017083
-0.11287656 -0.3237449 -0.16848062 -0.11759664 -0.14747116 -0.11734585 -0.010131418 -0.09482339
-0.00022646932 0.026177865 0.029338043 0.053587813 -0.23932932 -0.25523826 0.118865296 0.06495983
-0.014441634 -0.022392375 0.077861115 -0.006311814 0.050498255 0.036537156 0.10194736 -0.05524309
-0.03792982 -0.054461583 0.034956887 -0.10124999 -0.14767237 -0.2017722 -0.027109182 -0.19926137
0.06559755 -0.16145164 -0.073287554 -0.02107392 -0.121119566 -0.10007544 -0.12972012 -0.11238042
00000000: 65f1 0abd 0f5c 3bbe 02ee 66bc 4724 00bd
00000010: 457e 623d a476 993d 3224 cabc 0948 c93d
00000020: 3517 b4bd 84ca 8c3c 4e31 f73d 7544 35bd
00000030: 22b8 b63d 258e b63d 9f1e b5bd 013b 013e
00000040: d600 0d3d 2717 f6bd 75e9 1d3d cbf2 d33c
00000050: 8e8e 703c b69d c5bd 1173 8f3e c554 0d3e
00000060: fbfc e7bd edb5 283e 2677 5fbe 823a 0bbe
00000070: 3ddd e13c 45e9 66be c475 643d 5df8 1d3e
00000080: 2219 a9bd 8a88 06be 9a53 423d 962c 55bd
00000090: 287f cebd de05 38bd a575 27be 4c51 a73c
000000a0: 99f6 ddbd 84bb 87bc a3a3 ff3d fe7e 863d
000000b0: 8e58 2cbe 3baf 63bd ee5e 8e3d 1a2e 6cbd
000000c0: e9b2 a73d aafe a43d 81d5 d8bb 163d 4c3d
000000d0: 633c ea3b 0eea b7ba 33d8 f9bd 2867 213e
000000e0: b7c6 f83c 2602 08bd 8fba 753e 894b 3e3d
000000f0: c2c3 8a3d 3184 7bbd 2152 cbbd 49c6 7fbc
00000100: b888 f6bd dc22 89bd b873 86bd 0153 853c
00000110: 13b7 fcbc b62b b5bb 0efe 17be 3ae1 363d
00000120: e2bf 23be 05ae fcbd b95a 1ebe d47f 04be
00000130: 33c0 48bd 81af 85be 6d76 f9bd 8cdb d6bd
00000140: 4f3c 91bd 7351 c4bd 53a8 87ba 2c55 dbba
00000150: 1afa f9bc 0f2e 1abe e772 19bd 4e23 983d
00000160: d8a8 98bd 2efd b6bd 343b ea3d 06f8 283d
00000170: ca6b 2a3d dad4 253d f589 3cbd 85b7 62bd
00000180: 4feb 4bbc 78ca 11bd 0bdd 2dbe 941d 003d
00000190: 067f 5cbe 9fc6 43be fbe8 793d f1a5 b7bd
000001a0: a143 d7bd c6ff 48be 7eac 21be 57ec 0dbe
000001b0: 0409 a63c 2035 a2bc f8cb 4bbe ec69 0fbd
000001c0: 5e39 6abd d6dd 9abc d92b d3bd d179 78bc
000001d0: 7e2d baba 1e89 b93d 8d91 683d 2753 21be
000001e0: 4ec3 853e b23a 1b3e 01e7 bc3d 19d9 14bb
000001f0: 7028 bbbd ff4a 3abe 992e 3c3d 9bc8 8f3d
00000200: 5f91 bbbd c671 1e3e 537b 523d a982 17bd
00000210: 3506 993d 5556 843c 0efb 2fbe ee8b 303d
00000220: a22a 533d 619d 1ebe b7fe e73d ad55 103e
00000230: 3ad4 80bc 6663 41be 92fb 62be c325 61be
00000240: 6a5d b1bd cda1 d9bd bf4d 86bd e85b e23d
00000250: 543f 0abd 7070 023d 142b 4f3d 0368 d6bd
00000260: b7be bc3d 6833 80bd cff9 2e3e 6dd7 163e
00000270: b76d 50bd ae5c d03d 26e0 723d 33c1 ccbd
00000280: 31b1 dabc 1f1a 7e3d 2b5c 523d 78f6 4e3e
00000290: 55f5 9f3d f1b9 083e 7e90 3f3e 3348 293e
000002a0: 765a 873d 2e2a 533d 6bcf 803d 4169 74be
000002b0: 6230 91be 5870 49be 2988 ebbb a36c 9abd
000002c0: 01cc 02be 100a 0fbe a8e3 f83c e415 2f3d
000002d0: e72c a9bb e95e 143e 11a5 923c 0713 613b
000002e0: fa5d 09be 088a 9bbd a918 293d 2b6b d8bc
000002f0: a35e 02be ec8f 4c3d 82e5 123e c67f 8dbd
00000300: 9f40 3b3e f8d3 bcbc 8519 e23b 76b5 323d
00000310: d774 8cbd 9b17 63bd 1c49 e7bd cc50 f9bc
00000320: d50d 0a3e eafd 68bd a4e5 abbd 5957 d63c
00000330: 2e67 46bd c222 cebd 023b 06be 92c6 363a
00000340: 9d53 de3b f361 ed3d cbe6 54bc bb98 633c
00000350: e97d 26bd c018 aabc 9b96 e0bd 201c f6bd
00000360: d32b e7bd e4c1 a5be 2f86 2cbe 82d6 f0bd
00000370: ae02 17be 0553 f0bd 3ffe 25bc c432 c2bd
00000380: 6578 6db9 f672 d63c 5656 f03c e57e 5b3d
00000390: bf12 75be 97ae 82be a66f f33d a909 853d
000003a0: 9a9c 6cbc 3770 b7bc a675 9f3d 55d3 cebb
000003b0: 42d7 4e3d fca7 153d c7c9 d03d 9446 62bd
000003c0: 4d5c 1bbd 1c13 5fbd f42e 0f3d 285c cfbd
000003d0: 6d37 17be 5f9d 4ebe 1314 debc 2c0b 4cbe
000003e0: 0258 863d 9453 25be c917 96bd 37a3 acbc
000003f0: 890d f8bd 5af4 ccbd 5ad5 04be b527 e6bd

conv2.0.bias f4 [32]
-0.16985264 -0.11622969 -0.09212002 0.16711965 -0.01615938 -0.060518906 -0.121427976 -0.13101223
0.16516897 0.3216409 0.1525187 -0.058804628 0.13770625 -0.23981373 0.026574986 -0.10412819
0.03903256 0.1962612 -0.21894047 0.15771899 0.0032534543 -0.20455855 -0.20526448 0.116021
0.1616614 0.1929553 0.09133451 -0.006181249 -0.07323448 -0.06760242 0.13089724 -0.12248753
00000000: daed 2dbe d509 eebd 6ca9 bcbd 6a21 2b3e
00000010: ad60 84bc ace2 77bd 3baf f8bd 1228 06be
00000020: 0e22 293e 1eae a43e dd2d 1c3e 1fdd 70bd
00000030: de02 0d3e bb91 75be c9b3 d93c 2941 d5bd
00000040: 9be0 1f3d b2f8 483e ee31 60be 1681 213e
00000050: e837 553b cc77 51be da30 52be 6b9c ed3d
00000060: 918a 253e 1396 453e 960d bb3d 138c cabb
00000070: f6fb 95bd 2373 8abd ed09 063e beda fabd

conv2.3.weight f4 [32]
0.55339557 0.44639418 0.48448193 0.6037425 0.31406483 0.3941853 0.7368082 0.46491536
0.7564029 0.59300935 0.69091123 0.480793 0.5409629 0.68689746 0.6358653 0.44320032
0.5016895 0.6742404 0.5241693 0.5380072 0.4172857 0.5322819 0.7405151 0.4811413
0.5316505 0.2290999 0.36718413 0.5764765 0.49097854 0.6029782 0.42245042 0.29205814
00000000: 55ab 0d3f c78d e43e 040e f83e de8e 1a3f
00000010: 1bcd a03e a8d2 c93e 769f 3c3f 6309 ee3e
00000020: 9fa3 413f 76cf 173f 8fdf 303f 802a f63e
00000030: 8b7c 0a3f 83d8 2f3f 11c8 223f 27eb e23e
00000040: b96e 003f 059b 2c3f f62f 063f d7ba 093f
00000050: 79a6 d53e a043 083f 6692 3d3f 2758 f63e
00000060: 3f1a 083f 2a99 6a3e 8fff bb3e f793 133f
00000070: 8a61 fb3e c85c 1a3f 6c4b d83e a588 953e

conv2.3.bias f4 [32]
0.092792615 0.047778983 0.069193244 0.091353215 0.026550042 0.05050078 0.12498857 0.050166335
0.08040766 0.07456072 0.073106356 0.03686233 0.063012734 0.04684716 0.13158509 0.0821027
0.049947415 0.066954255 0.1177765 0.06872367 0.059147693 0.079390846 0.19746596 0.07831156
0.08422896 0.024766807 0.066970095 0.07253858 0.06455525 0.05889051 0.052244235 0.047720496
00000000: 0e0a be3d e5b3 433d 30b5 8d3d 6517 bb3d
00000010: 797f d93c e8d9 4e3d 02fa ff3d 377b 4d3d
00000020: c5ac a43d 4ab3 983d c9b8 953d f4fc 163d
00000030: d20c 813d cfe2 3f3d 3ebe 063e 7625 a83d
00000040: a995 4c3d 501f 893d ce34 f13d ffbe 8c3d
00000050: da44 723d ab97 a23d 8434 4a3e d061 a03d
00000060: 3c80 ac3d c2e3 ca3c 9e27 893d 1b8f 943d
00000070: 8b35 843d 2d37 713d 0dfe 553d 9176 433d

conv2.3.running_mean f4 [32]
0.34762704 0.57522017 0.64188373 0.80295575 0.95814073 0.5436667 0.34328228 0.23745231
0.8131141 1.2524686 0.8127108 0.40667126 0.69107586 0.33442783 0.5330107 0.37747172
0.75065553 0.833124 0.22268641 0.6432027 0.49937293 0.07203355 0.30916005 0.5425379
0.88502175 0.7567022 0.6418517 0.7565048 0.47802648 0.39010414 0.82034606 0.50710666
00000000: 2cfc b13e a141 133f 7e52 243f 828e 4d3f
00000010: b648 753f be2d 0b3f b2c2 af3e b326 733e
00000020: 3f28 503f e450 a03f d10d 503f 3737 d03e
00000030: 59ea 303f 203a ab3e 6473 083f f943 c13e
00000040: f62a 403f 9d47 553f e807 643e efa8 243f
00000050: cfad ff3e 5386 933d 3a4a 9e3e c4e3 0a3f
00000060: c990 623f 3cb7 413f 6550 243f 4caa 413f
00000070: e3bf f43e bbbb c73e 3302 523f bed1 013f

conv2.3.running_var f4 [32]
1.0243379 1.9363117 0.98667115 0.9933434 2.0088418 1.3909953 0.6131577 0.42221323
0.651978 1.452966 0.93288493 0.46397293 0.5771917 0.29334605 0.67680913 1.1655325
1.1756978 0.8494516 0.46950245 0.8988045 0.44523367 0.123322874 0.5842469 0.8941503
1.911232 0.96600074 0.79843 1.1217936 0.5633925 0.61928135 1.9215727 1.335788
00000000: 811d 833f 10d9 f73f 7b96 7c3f c14b 7e3f
00000010: dd90 0040 220c b23f e7f7 1c3f 552c d83e
00000020: 08e8 263f cafa b93f 8cd1 6e3f dc8d ed3e
00000030: d6c2 133f 7431 963e 5d43 2d3f 2b30 953f
00000040: 447d 963f a975 593f a062 f03e 0d18 663f
00000050: abf5 e33e b490 fc3d 3491 153f 09e7 643f
00000060: 40a3 f43f d34b 773f e965 4c3f ef96 8f3f
00000070: 7e3a 103f 3989 1e3f 18f6 f53f 1afb aa3f

linear.weight f4 [8, 8960]
-0.02122266 0.0063735927 -0.014878253 0.07457174 0.013700356 0.048341252 0.045149077 -0.002463914
-0.21445477 -0.0931452 -0.08208182 -0.19135153 -0.2005482 -0.22358997 0.27631858 0.08649502
-0.0594578 0.07257152 -0.008592588 -0.0040718894 0.104506694 0.3236268 0.1351488 -0.15351577
-0.052169736 -0.06636148 -0.0020879055 0.00014304784 -0.033648707 -0.025693968 -0.0073859575 0.010365614
0.13051447 0.15341723 0.103139564 -1.1903855e-06 0.0012801144 0.021850577 -0.039771922 -0.09040888
0.006276263 0.1165072 0.030964902 -0.016661353 -0.01311819 0.10542087 0.0023328464 0.022202479
0.06932905 0.047522053 -0.08264642 -0.067314945 -0.019642577 -0.038193393 0.020272538 -0.018728668
-0.09478981 -0.08085308 -0.013432417 -0.032126307 -0.10620594 -0.045986854 0.007273773 -0.077317834
-0.11214866 -0.014004859 -0.09276792 0.016079692 0.07896408 -0.10715954 -0.013005291 -0.043077618
-0.018661097 -0.0817107 -0.12768802 0.083502024 0.066583015 0.055989787 -0.052437235 -0.07507634
-0.020395655 -0.018441416 0.03740494 0.033267617 -0.01817573 0.12047385 0.025388615 -2.4762765e-05
0.01351598 0.026882408 0.03857594 -0.038564585 0.04583426 0.19315028 -0.00969934 0.04655958
0.05455307 -0.18023115 -0.00226631 -0.063934416 -0.15120432 0.0022232265 -0.07187468 0.051356677
-0.033808175 0.02791171 -0.026796736 -0.093758695 -0.02371101 -0.056273732 -0.0054978505 -0.05615455
-0.10570284 0.042596575 0.07865742 0.11053069 0.041612923 0.08172115 0.05459712 0.08052499
0.030645996 0.07021353 0.029075012 -0.019307291 -0.043271895 -0.025179511 0.057036757 0.079726286
-0.09223329 0.08771335 -0.08456503 -0.005025114 0.006169029 0.01466285 0.017043853 -0.07484901
-0.008170775 -0.066595145 -0.00037473897 0.0011546733 -0.091273345 -0.076160274 0.008925919 0.09867884
0.054334193 0.016612915 -0.16684005 -0.098145545 0.047873132 0.06856734 -0.11089981 -0.008373266
-0.025339114 -0.12505154 0.020163072 0.02826435 -0.03629077 0.030650532 -0.051159885 -0.034303002
-0.019784806 -0.017831242 -0.043225795 -0.07606052 -0.0146360425 -0.10973496 0.0013880424 -0.051197834
0.0018598851 0.08571329 0.030743783 0.054890096 0.007173913 -0.010061795 -0.027207308 0.03389801
0.038731303 0.018578062 0.101944044 -0.073349856 -0.13765934 -0.06735817 0.027165703 -0.009723657
-0.0018677466 0.040695447 -0.03494781 -0.029540014 -0.049502283 -0.0052735484 -0.041390575 -0.083510034
0.015850501 -0.006941776 0.013055558 0.01111477 0.022770403 -0.015465259 -0.056709345 -0.033792496
-0.030773373 0.08811436 0.031588227 0.041448135 -0.01260657 0.03696867 0.15447357 -0.042675305
0.018295348 0.022536743 0.093476236 0.07293606 0.0057058944 0.018092634 0.004079076 -0.019051807
-0.040516455 -0.04464334 0.0017254351 -0.048439745 -0.032698754 -0.038668416 -0.05160467 -0.024814175
-0.0071520796 -0.09424835 0.068524845 0.11089756 0.016099956 0.0600455 0.086633734 0.043119445
-0.145197 0.10609646 0.13368021 0.047317833 0.023848917 -0.07763078 0.0036549456 0.027291944
-0.01391348 -0.05120703 0.046732903 0.075850286 0.030451866 0.041647855 -0.06194083 -0.08802024
0.0090845525 -0.0011043912 0.03098976 0.048412573 -0.013340699 0.13866265 0.09006068 -0.025035331
00000000: 25db adbc 92d9 d03b ebc3 73bc 12b9 983d
00000010: 7577 603c 7a01 463d 3dee 383d 9e79 21bb
00000020: 089a 5bbe e9c2 bebd 831a a8bd a8f1 43be
00000030: 825c 4dbe c5f4 64be a179 8d3e 4d24 b13d
00000040: 068a 73bd 61a0 943d edc7 0cbc 7c6d 85bb
00000050: 9b07 d63d 69b2 a53e 7264 0a3e 3d33 1dbe
00000060: efaf 55bd 87e8 87bd 3ed5 08bb 1dff 1539
00000070: 3ad3 09bd 287c d2bc e705 f2bb 89d4 293c
00000080: 96a5 053e 6819 1d3e d63a d33d 56c5 9fb5
00000090: 83c9 a73a fbff b23c e2e7 22bd 4a28 b9bd
000000a0: 1ca9 cd3b 549b ee3d 1baa fd3c 647d 88bc
000000b0: aded 56bc e6e6 d73d abe2 183b f9e1 b53c
000000c0: 64fc 8d3d 7ca6 423d 8742 a9bd 6bdc 89bd
000000d0: 78e9 a0bc ad70 1cbd 9812 a63c dd6c 99bc
000000e0: 2921 c2bd 4d96 a5bd a413 5cbc e096 03bd
000000f0: 8082 d9bd b65c 3cbd d558 ee3b d058 9ebd
00000100: 32ae e5bd a374 65bc 1bfd bdbd 8fb9 833c
00000110: ebb7 a13d 7676 dbbd 2514 55bc 2872 30bd
00000120: 28df 98bc f157 a7bd a6c0 02be 1c03 ab3d
00000130: ad5c 883d 8c55 653d 6dc8 56bd a0c1 99bd
00000140: ca14 a7bc 7412 97bc ec35 193d a043 083d
00000150: 45e5 94bc feba f63d c9fb cf3c a2b9 cfb7
00000160: 2172 5d3c 7f38 dc3c ce01 1e3d e6f5 1dbd
00000170: b4bc 3b3d 30c9 453e fbe9 1ebc 42b5 3e3d
00000180: 0a73 5f3d 848e 38be 5f86 14bb 0cf0 82bd
00000190: 4ed5 1abe 8db3 113b 0833 93bd 615b 523d
000001a0: 717a 0abd 19a7 e43c d484 dbbc 8f04 c0bd
000001b0: 983d c2bc 497f 66bd 5027 b4bb 5002 66bd
000001c0: bb7a d8bd bf79 2e3d 2417 a13d ea5d e23d
000001d0: 5072 2a3d 6b5d a73d 3ba1 5f3d 49ea a43d
000001e0: 500d fb3c 1ccc 8f3d b82e ee3c 532a 9ebc
000001f0: df3d 31bd 4345 cebc 609f 693d 8947 a33d
00000200: cfe4 bcbd 0fa3 b33d 6e30 adbd b6a9 a4bb
00000210: 9125 ca3b 733c 703c 8d9f 8b3c 704a 99bd
00000220: b7de 05bc 0963 88bd 9d78 c4b9 6858 973a
00000230: 85ed babd ebf9 9bbd 053e 123c 2218 ca3d
00000240: 888d 5e3d cf17 883c 1ed8 2abe 8800 c9bd
00000250: 9e16 443d 096d 8c3d 711f e3bd 0630 09bc
00000260: f993 cfbc 830d 00be 072d a53c a38a e73c
00000270: a1a5 14bd d316 fb3c 078d 51bd 4e81 0cbd
00000280: bf13 a2bc d312 92bc 880d 31bd 9ec5 9bbd
00000290: 03cc 6fbc b9bc e0bd f9ee b53a d2b4 51bd
000002a0: 63c7 f33a 738a af3d 63da fb3c 70d4 603d
000002b0: 2513 eb3b 3ada 24bc dce1 debc a4d8 0a3d
000002c0: b7a4 1e3d 0531 983c 0ac8 d03d 7338 96bd
000002d0: 92f6 0cbe 15f3 89bd 9c8a de3c f94f 1fbc
000002e0: 2dcf f4ba 45b0 263d 6f25 0fbd e6fd f1bc
000002f0: e8c2 4abd bbcd acbb 2a89 29bd 4f07 abbd
00000300: e9d8 813c d677 e3bb fbe6 553c b91a 363c
00000310: ff88 ba3c ff61 7dbc 0f48 68bd 006a 0abd
00000320: 7118 fcbc 4d75 b43d a862 013d 85c5 293d
00000330: c98b 4ebc 766c 173d 522e 1e3e 4dcc 2ebd
00000340: 20e0 953c fa9e b83c 7870 bf3d 805f 953d
00000350: 83f8 ba3b 0137 943c c5a9 853b 8912 9cbc
00000360: 95f4 25bd efdb 36bd ff27 e23a c168 46bd
00000370: 21ef 05bd c662 1ebd 6b5f 53bd 1947 cbbc
00000380: fe5b eabb 4705 c1bd c156 8c3d 431e e33d
00000390: 0ee4 833c 45f2 753d 076d b13d 049e 303d
000003a0: 86ae 14be 1a49 d93d 77e3 083e 58d0 413d
000003b0: ce5e c33c e3fc 9ebd d087 6f3b 5b93 df3c
000003c0: 5df5 63bc 76be 51bd 006b 3f3d 6557 9b3d
000003d0: 3176 f93c f196 2a3d abb5 7dbd f543 b4bd
000003e0: 60d7 143c 38c1 90ba 3dde fd3c 434c 463d
000003f0: f292 5abc 95fd 0d3e bc71 b83d e516 cdbc

linear.bias f4 [8]
0.05431025 -0.05216562 0.018221762 0.023373082 -0.020019567 -0.025811175 -0.004666318 -0.0034038513
00000000: 6d74 5e3d 9eab 55bd ce45 953c e878 bf3c
00000010: 1300 a4bc f571 d3bc eae7 98bb 2613 5fbb
